model.pt (torch_old, 10598 bytes, 6 tensors)

fc1.weight f4 [32, 37]
00000000: 844b 3c3d d041 36bd 2d8e 5dbd 39b7 79be
00000010: e499 89be 9400 363c 626d 94bb 8a1e 013e
00000020: f399 023c b587 b43d b9cc dabc 6006 76be
00000030: 5977 eabd fe9d 243d e448 803e 5e60 743c
00000040: 4499 0d3d c51e 053d cc78 c1bd 177e d53c
00000050: 80a8 173d 51d4 f9bd 06e9 fc3b fd7e 4f3e
00000060: 57a2 dd3e 8cc2 dd3c efb2 27bd 0dc9 f7bc
00000070: 0331 6fbd c22e 463e 0dae 62bd bee2 97bd
00000080: 94e5 8dbd ab55 09bd 28c3 f03d 00ae 413c
00000090: 004a 873b dac1 6c3e 5b06 ae3d 1aa1 ed3d
000000a0: 3eca aa3c d08f 3bbe 3e70 fc3c ce9e c8bd
000000b0: 7d24 cfbc 34d0 b5bd 76ed 07be 9931 ba3d
000000c0: ba96 b13d 1a45 f03d 9477 823d 7238 30be
000000d0: f275 ec3d e4b4 fb3d fe52 f33d 3dcb 353e
000000e0: a68c ecbb 6528 1cbe 2f10 8bbd 0a3f 823d
000000f0: b8b3 0c3e fc32 a63e 1711 4d3c e105 9e3d
00000100: 3831 753d 59c1 c13d 0f67 2a3d ad0d 9d3c
00000110: 21e0 913e b4e8 1a3e d644 a63d ddde 4c3d
00000120: 2484 13bd 49e1 7e3d 7919 ab3d fdb7 ea3d
00000130: 25b2 a93d af6a 8c3d f007 96bc 1b2d d2bc
00000140: b4e3 9e3c 8f13 a83c 09a7 1c3c a9fe 66bc
00000150: 4465 983e d0ce edbd 17ec 51be 1401 9ebe
00000160: 77af c2bf 8b69 bc3c 324d 0a3d 4275 463d
00000170: d9f7 273d 6f57 6a3d 27a9 91bd 69e1 98bc
00000180: 1362 74bc 04c1 073e fcd2 223e ea3b 863c
00000190: c6f5 893c 40ca 8f3d a93e ca3d 7934 933d
000001a0: b211 0abe fc07 63bd ad9f 66bd 03ab 0fbd
000001b0: 1c0e 003d 6a1d 9bbb eaea 61ba af7a 0dbe
000001c0: 66a2 a0be 7b0f 543e 5ab6 d8be 0bba dabf
000001d0: 5a05 93bd 8f96 f3be dc68 313c 468f edbd
000001e0: b39e 9fbe 9041 71bd 608c 243c e5e7 dbbd
000001f0: ef2c e2be 66eb 4cbe 04da 4bbe 892d d8be
00000200: 03f6 593d e94b 2ebf 2866 48bf ee18 96be
00000210: cf6d afbd fc5a 19bd db9f 66bc a391 c33d
00000220: b673 a8be 8ae9 93be c550 193e 3782 ebbe
00000230: 6179 aebe d426 da3c 9e2f fe3c 457a febd
00000240: f50f 70be 39d4 20bf 9743 d03d 70bb 213d
00000250: eed3 02be 1e38 dbbc f2e7 f4bd ef17 bcbd
00000260: 6a8a c1be d777 56be c848 0cbf c9d1 a43e
00000270: 49a8 09bf 9fd9 1cc0 794d 51bd 3c15 033e
00000280: c700 9abc 2abe 99be 3f97 bfbe a731 2dbe
00000290: a52e 7d3d 1347 6a3d 7dad 5bbe 0045 4cbe
000002a0: ade3 13bd 66c2 b33d d491 b53d 567c 8bbe
000002b0: 517b abbe 0b30 b73c b7cb 153d a8ce 9a3e
000002c0: 55fb 97be 2f75 93bf 822a c13d cf47 04be
000002d0: e5f6 393e 5c25 f3be 9682 dbbe 8d0c a1bd
000002e0: 3961 2a3d 49b9 93bc 8430 7abd 9bfc 873d
000002f0: 2831 c23d 9252 103e 3755 8f3e 0fed 803d
00000300: 4f2d 153d 4200 b2be b934 a5bf d7a6 cb3d
00000310: f538 0bbd 1b32 ff3c 2baa 0dbd b2de b6bd
00000320: 9e1b f13d 06af 093d acdc 283d a6fa 72bd
00000330: bdec 57be 9029 fa3d 513a 2c3e 84b2 143e
00000340: 14f1 453c adf2 f5bd a671 033e e2ab 283e
00000350: 3b4d c7bc 7d82 4f3c 0a67 9d3c 7a6a 473e
00000360: 4ff4 0f3d 445c fcbc 5787 07bf f555 b4bf
00000370: d091 c1bc 7e12 e33b 9720 95be 2727 913e
00000380: ad98 6dbd 78ef 873a 1d1f aabe b141 22bd
00000390: f32d 02be 80b8 ddbb 5b33 f53d 2311 ac3d
000003a0: ee93 163c 93d1 b73d e2f7 873d 6993 ad3d
000003b0: cf0c 743d 850d 45bc fdb0 8abc 2c6d 3c3d
000003c0: 0641 473d 4f3b 313e d8aa 1bbe f4d2 a9bd
000003d0: 747f 563d 92ca 1d3e 0399 553e b106 40be
000003e0: 6e22 863d fda6 1cbe 9146 023e 81af d03d
000003f0: a979 17be 0b82 29bd f13a 813c 6500 c33d
0.045970455 -0.044496357 -0.054090668 -0.243863 -0.26875222 0.011108536 -0.004529641 0.12609306
0.007971275 0.088149466 -0.026708947 -0.2402587 -0.11448545 0.040189736 0.2505561 0.014915554
0.034569994 0.032500047 -0.09446868 0.0260611 0.03702593 -0.12198699 0.0077182082 0.20263286
0.43287918 0.027070306 -0.04094213 -0.030247236 -0.05839635 0.19353774 -0.05534177 -0.074162945
-0.06928554 -0.033528965 0.11755973 0.01182127 0.0041286945 0.23120824 0.08497306 0.11602993
0.02084839 -0.18316579 0.03081524 -0.097959146 -0.025285954 -0.08877602 -0.13274178 0.09091491
0.08671327 0.1173193 0.06370464 -0.17209032 0.11545934 0.122903615 0.11881064 0.1775331
-0.007218915 -0.15249784 -0.06790196 0.0635968 0.13740432 0.32460773 0.012516282 0.07715965
0.05986139 0.09460706 0.04160219 0.01917156 0.2849131 0.15127832 0.08118598 0.050017226
-0.03601469 0.062226567 0.08354468 0.11460874 0.082859315 0.06856286 -0.018314332 -0.025656274
0.019395687 0.020517139 0.009561309 -0.014098802 0.2976476 -0.11611712 -0.20500217 -0.30860198
-1.5209798 0.022999546 0.033765025 0.04845167 0.04100785 0.05721229 -0.071123414 -0.018662171
-0.014915961 0.13257223 0.15900797 0.016385991 0.016840827 0.07020998 0.09875233 0.07187743
-0.13483313 -0.055427536 -0.056304622 -0.0350752 0.031263456 -0.004733731 -0.0008618074 -0.13816331
-0.313739 0.2070903 -0.42326623 -1.7088026 -0.07178755 -0.47575805 0.010828223 -0.11599593
-0.31175765 -0.058900416 0.010043234 -0.1073759 -0.44174907 -0.20011672 -0.19907385 -0.4222224
0.05321313 -0.6808458 -0.7828088 -0.29315895 -0.08565866 -0.037440285 -0.014076198 0.095492624
-0.3290078 -0.28889114 0.14972217 -0.45997784 -0.3407698 0.026629843 0.031028565 -0.12425665
-0.23443587 -0.62823826 0.10169142 0.039485395 -0.12776157 -0.026760157 -0.119583026 -0.091842525
-0.37800914 -0.20944153 -0.54798555 0.32191303 -0.5377241 -2.4507825 -0.051099274 0.12801069
-0.018799199 -0.30027896 -0.3742008 -0.16913472 0.06181206 0.057196688 -0.214529 -0.19948196
-0.0361058 0.08777313 0.08865705 -0.27243298 -0.3349252 0.022361776 0.03657123 0.3023579
-0.2968394 -1.1520137 0.09431936 -0.12918018 0.18160589 -0.4748944 -0.42873067 -0.07863722
0.041596625 -0.018032687 -0.061081424 0.066399775 0.09482032 0.14093998 0.279947 0.06295215
0.036420163 -0.34765822 -1.2906715 0.099439315 -0.033989865 0.031151822 -0.034586113 -0.089291945
0.11772846 0.03361418 0.041226074 -0.05932107 -0.21086402 0.12214959 0.16819121 0.14521223
0.012081403 -0.12009177 0.12836322 0.16471818 -0.024328819 0.012665388 0.019214172 0.19474211
0.0351451 -0.030805714 -0.5294089 -1.4088732 -0.0236291 0.0069296947 -0.29126427 0.28350183
-0.05800693 0.001037105 -0.33226863 -0.03961343 -0.1271284 -0.006766379 0.11972686 0.08401706
0.009190543 0.0897552 0.06639077 0.08475382 0.059582528 -0.012027149 -0.016930098 0.046002552
0.048645996 0.1730778 -0.1520189 -0.08292189 0.052367643 0.15409306 0.2085915 -0.18752553
0.06549536 -0.15298076 0.12722231 0.10189725 -0.14792503 -0.041383784 0.015775176 0.095215596

fc1.bias f4 [32]
00000000: 311d 19be 9f88 20bd 8c5f 1abd c34f 3e3d
00000010: 3c82 6a3e cf5d 5b3c b2f6 e7bc 3348 693e
00000020: 5ebc bb3d 16c5 2f3e d281 1fbd 9575 f43c
00000030: 109f ae3c e8e3 12be 6249 cb3d b4fb 61bc
00000040: 34b2 0e3e 479b 073e 1035 b33d 2239 f5bd
00000050: f201 17be f60f c4bd 5d2c 99bd e87e d13d
00000060: da0d e33d 7dc7 4c3d d3f4 97bd ee8a 1a3c
00000070: d4e7 623e b9a3 58be 79d8 6cbd 6269 1cbe
-0.14952542 -0.039192792 -0.037688777 0.046462785 0.22901243 0.013389065 -0.028315876 0.22781448
0.091667876 0.17165026 -0.038942166 0.029841224 0.021316081 -0.14344752 0.09926106 -0.013792921
0.13935167 0.13242827 0.08750355 -0.11973788 -0.14746836 -0.09573357 -0.07479165 0.102292836
0.11086626 0.049994934 -0.074197434 0.0094325375 0.22158748 -0.21156205 -0.057823632 -0.15274575

fc2.weight f4 [32, 32]
00000000: f939 c03d b211 6b3d 99a4 36be 382c ac3e
00000010: 466f e53e 003b b43e a318 fc3c 51b9 9fbd
00000020: 40e1 c9bc ee77 7d3d 4119 72be 2f36 9d3e
00000030: be8c 703d 3bd7 b6be d14e 1c37 572a 9ebe
00000040: c0ff 26be 875b c13d 8c3b 90be 7499 b6be
00000050: 01dd d73d 0637 89be 31f3 613e 019a acbd
00000060: 72e7 79be 3f4a 0bbe d5e8 e23b bf30 0dbe
00000070: ff0c 47be 0cef 1abd e3ba ccbd daaf b2bc
00000080: 6ac5 a93c 71c7 793c 8d86 cf3e d12a 883e
00000090: 8939 2dbe 7004 84be f86c c83d 2671 8f3d
000000a0: 4d8d 2a3d cdcb 9e3c 1b34 c03c cf03 e5bb
000000b0: 9b2a ec3d 868d d2be bda9 0c3d ff9f 01bd
000000c0: c905 203e 8ed1 8b3e 94a3 143c 51ea d33e
000000d0: c8c4 8b3e c21f c43d fd65 a43c 0fad 8abe
000000e0: 0d02 2bbf f5cf c93d f6d1 5fbe ca14 a03e
000000f0: 4997 663e c427 0fbc 3138 91bd 9743 093e
00000100: 42ad 6dbc 8d9f 31bf 1c5a 0ebc a85e 203e
00000110: 7819 643d a22c dfbd 21f9 80bd 78df 883e
00000120: 63a3 e7be ff07 c4be 36f9 893e ee27 66be
00000130: c280 233d 7e0e 4cbe 7372 85be e330 2dbe
00000140: 5eee d33a 6f6e 34be 821b 853e 0191 cfbe
00000150: 941c 65be a8ed 87bc 9f44 dd3d 23ec 193d
00000160: 5470 a4bc c32e a3bd e909 86be 4e88 8dbe
00000170: 1898 a3bd beed c73e ca4d 033e cd7d f63d
00000180: 558b d1be ae9b bdbd 8e81 2b3e 495f a8bb
00000190: 1f44 a4be c483 17bd b995 6c3e f28b 123e
000001a0: 3220 52bd de90 863d cb30 f1be 4727 ccbd
000001b0: a0ba ffbe c8a4 a33e 650c 20be 0dc1 b5bd
000001c0: 0176 3bbe cbb5 b1be 3c4e 643c e58f 67be
000001d0: aae6 a2bd 0bac 053e 2de3 b1be e40d 15bd
000001e0: 98b2 e13e 0705 843e 5dad b4be 111d fa3d
000001f0: f4f1 77be 2280 a4bb 2190 bdbd 00eb 553e
00000200: 2a1a 5bbd a797 b6bd 6f70 553e 6f5d d1be
00000210: 3fbb 1f3e 6a65 1d3e 6b77 6abb a82e 123e
00000220: f81d 073e 902b 193e 6a84 2abd 075b 643d
00000230: 5abd 1abe 7940 82be 7c31 283e 30d4 2a3c
00000240: d4f1 933d 165b 163e 8d2b 3dbc faba c23e
00000250: 052e dabd 17d3 113e 40af b53d 16f2 ba3e
00000260: 1a56 92be 166c 733e b410 753e 6b7f cb3e
00000270: bf67 d2bd 7afc c33b f4cf dd3d 3d97 7c3c
00000280: 75a3 1c3e 4768 513d 5da8 58be 49f9 e23d
00000290: 05e2 133f 03ff ca3d 9010 2e3e 3c79 08bd
000002a0: 102d a03c 6191 2c3e 9a24 803c 5508 8abe
000002b0: 65ef 293d 2be4 83bd a8ce 653d ad26 263d
000002c0: 1b36 f43d 8a93 14be 792a 0d3e 97c6 4abf
000002d0: 11c8 213e a619 2e3d f979 27bd d297 16bf
000002e0: 0738 4ebf b39f 14bf 5493 65bf 33da 35bf
000002f0: 7347 583b dff9 503e 1709 6dbe a529 9ebc
00000300: 6c46 4bbe ccd1 09be 7adf ae3e fb95 993e
00000310: d134 b43e 21fc e03b 925d 143e c193 603e
00000320: fe6d 963d 7047 52be d217 bdbe dae3 e0bd
00000330: 493c 09be 3fef 2f3d ac1c a7bd ca5c 88be
00000340: 9a9d acbe be16 47be 5896 943e 696d 8d3b
00000350: faf0 01bd dfb7 56bf 3591 08bd 6be2 a2be
00000360: 7392 b53c 33ca 7e3e f7b7 e8be 8e1b 37be
00000370: 27b0 5abd 260c 0dbe 2132 06bf 05d2 283e
00000380: 4735 9abd 4cc0 753d a643 3b3e d225 7cbe
00000390: 3fcc 19bd d90e bc3c 4118 d43a 101f 1c3e
000003a0: 2bf7 d33d 24aa f5bc 15a8 3e3e 5979 4f3e
000003b0: e3ff 0b3e 658b 153b c9dd 313e 35ce 1fbe
000003c0: f153 753d a757 0a3d 4a9b b63d db5a d53e
000003d0: d287 cbbd 31cc 1f3e 2c3c 313d 91d0 0f3e
000003e0: 82cb 603e 26e7 743d 4065 bd3e 937d 8b3e
000003f0: cedd a33e 90c2 2abe 0843 2c3d d273 e23d
0.093860574 0.057389922 -0.17836227 0.33627486 0.44811457 0.35201263 0.030773466 -0.07799018
-0.02464354 0.061881952 -0.23642446 0.307054 0.058727972 -0.35711083 9.3166755e-06 -0.30891678
-0.16308498 0.094412856 -0.2817043 -0.3566395 0.105402 -0.26799792 0.22065426 -0.084278114
-0.24404696 -0.13602541 0.0069247284 -0.13788126 -0.19438551 -0.03782563 -0.09996583 -0.021812368
0.020724017 0.015245304 0.40532342 0.26595166 -0.16916479 -0.25784636 0.09786409 0.07004003
0.04163866 0.01938429 0.023462346 -0.0069889794 0.11531564 -0.411236 0.034341563 -0.031646725
0.15627207 0.27308315 0.009072203 0.41389707 0.2729857 0.0957637 0.020068163 -0.27085158
-0.66800004 0.09854118 -0.21857437 0.3126586 0.22518648 -0.008737508 -0.07090796 0.1340469
-0.01450664 -0.6938408 -0.008688476 0.15661108 0.05568835 -0.10897185 -0.062975176 0.26732993
-0.45241842 -0.3828735 0.26947945 -0.2247617 0.039917715 -0.19927403 -0.2606388 -0.1691318
0.0016169061 -0.17620252 0.2599755 -0.40540317 -0.22374183 -0.016592816 0.10804104 0.037578713
-0.020073093 -0.079679035 -0.26179436 -0.27643055 -0.07987994 0.3904857 0.12822643 0.12035713
-0.40926614 -0.09258209 0.1674864 -0.005138312 -0.32083222 -0.036990896 0.2310399 0.14311197
-0.051300235 0.065706 -0.4710754 -0.09968429 -0.4994707 0.31961656 -0.15629728 -0.08874712
-0.18306734 -0.3470901 0.013934668 -0.22613485 -0.07954152 0.1305391 -0.34743634 -0.0363902
0.4408157 0.25785086 -0.35288516 0.12212575 -0.24213392 -0.0050201574 -0.09256006 0.20890427
-0.05349175 -0.08915644 0.20843671 -0.40891597 0.15598772 0.15370718 -0.0035776745 0.1427561
0.13195026 0.14958024 -0.041630186 0.055750873 -0.15111294 -0.25439814 0.16425127 0.010426566
0.072238594 0.14683184 -0.011546028 0.38033277 -0.10653309 0.1424068 0.08871317 0.36512822
-0.28581315 0.237717 0.23932153 0.3974565 -0.10273694 0.0059810253 0.108306795 0.015416917
0.15296729 0.051124837 -0.21157975 0.110827036 0.57766753 0.09911921 0.16998506 -0.033318743
0.019552737 0.16852333 0.015642453 -0.26959482 0.04148807 -0.06440004 0.056105286 0.040564228
0.11924382 -0.14509407 0.13785733 -0.79209274 0.15798976 0.04250493 -0.040887807 -0.5882541
-0.8055424 -0.5805618 -0.8967793 -0.7103607 0.0033001571 0.20407818 -0.23147999 -0.019306967
-0.19851083 -0.13458937 0.34154874 0.2999724 0.35196546 0.0068659936 0.14488819 0.21931364
0.07345198 -0.20535064 -0.36932236 -0.10980959 -0.13401903 0.042952772 -0.081597656 -0.26633292
-0.3371399 -0.19442269 0.29020953 0.004316021 -0.031723954 -0.83874315 -0.033341605 -0.31813368
0.022164559 0.2488182 -0.45452854 -0.17881605 -0.05339065 -0.13774166 -0.5242024 0.16486366
-0.07529693 0.05999784 0.18287525 -0.24623802 -0.0375483 0.022956299 0.0016181545 0.15246224
0.10349878 -0.029988356 0.18618806 0.20261134 0.13671832 0.0022818681 0.1736976 -0.15606005
0.059894506 0.033774998 0.08916338 0.4167088 -0.09938015 0.15605237 0.043270275 0.14044406
0.21952632 0.059790753 0.3699131 0.27244243 0.3200516 -0.16675782 0.042056113 0.11057247

fc2.bias f4 [32]
00000000: 0937 54bc cbd0 edbc 6b92 b8bd 4270 11bd
00000010: 65f8 173e b51e 983d dd4e b53c 5056 aa3e
00000020: 4832 693c 2218 98bd 40cb 5d3e d94c 343e
00000030: e30d ec3e 1fc8 553e 4c22 07be 7ba1 503e
00000040: 68d8 8b3d 76f7 bdbc 2c16 9b3d 580e e13d
00000050: 7a30 143d 36d5 6d3b 0844 d93e 9c96 ea3d
00000060: 0e7b 48bc 1d92 6f3d 03b2 903e d220 c93d
00000070: 3b71 46bb aa04 96bd 057c c93d 437f ac3d
-0.0129525745 -0.029030224 -0.09012302 -0.035507448 0.14840849 0.07427732 0.022132332 0.33268976
0.014233179 -0.07426478 0.21659565 0.1760744 0.46104345 0.20877121 -0.13196677 0.203741
0.068283856 -0.023189288 0.07572588 0.10989064 0.036179043 0.0036290414 0.42434716 0.11454508
-0.01223637 0.058488954 0.28260812 0.09820713 -0.0030279893 -0.07325108 0.09838108 0.08422711

fc3.weight f4 [4, 32]
00000000: fb7d 86be 8b9f 6b3e c331 46be b71a 233c
00000010: 8b67 f63d d79f 1dbf c695 52bc 9c25 483e
00000020: c23d 383e e16b 713e 398d 4a3e 0ee2 bd3c
00000030: d920 4b3e 0734 b83e 36a3 53be 5fe6 953e
00000040: 7b9d 31be 3b79 9bbe c59e 773e c36c d23d
00000050: 2c38 163f b366 a23e be77 343e 7312 5b3e
00000060: 3afe 20be 719f da3d ab8a 803e ed93 08be
00000070: 7d82 84bd a8b4 95be a51d 52bd b13b 943d
00000080: ee8f cabe 0fc6 a4bc bf09 4cbe 30c3 93bd
00000090: 4f20 853e 1e5f 5dbe 00db 813e 8b37 713e
000000a0: b6dd 0a3d 3764 943e 1c4f 8c3e f6c8 dc3d
000000b0: 4b96 683e 5a43 f03e d1bb 33be ce62 8c3e
000000c0: 5e9d 94be c84a 05be d3ff 923e a98a ccbd
000000d0: 6216 083f 76c0 983e 9ed3 363e e8fd 9a3e
000000e0: 09db 8bbe 7408 3d3e 0f6c 343e cd06 e8bd
000000f0: d0f3 dcbb f6fe cdbe 9dbc 593c e92d 183e
00000100: e30e cebe 20c7 a33e 94c5 a4be 61af 5bbe
00000110: 4d66 323d 6766 12be 9d89 dcbe 7df5 6b3e
00000120: bddd 05be 6da7 f93e 24e5 b23e 947f 9a3d
00000130: 8eed 863e 0cb8 12bd fa7e 83be 8334 da3e
00000140: 6809 153e c711 cebe 709b 583d 23b5 9a3d
00000150: e121 bb3e 9351 983e afd2 313e 2d1b 353f
00000160: 0201 dbbd 36e1 213d 26ab 6b3e b463 f63d
00000170: 7220 a6bc 61b8 8ebe bb78 56bd 4b50 2f3b
00000180: 833a 27be 3f99 623d 2c2e bdbe ddaa 8d3e
00000190: abf5 3a3e 0493 27be 8be2 8dbe c55c 763e
000001a0: 3eb2 5a3e 0f70 b63e 211b a23e 8f69 de3e
000001b0: 1e4f 973e 7962 1c3f bbc6 aabe ee94 e03d
000001c0: 5896 1b3e 350e 82be eb2e 0b3e 4be4 84be
000001d0: 4377 953e 2d0f 863e 50db 133e 0779 d13d
000001e0: 9471 b5be 769b dd3d 7abc 873d f1f3 2dbf
000001f0: ee48 ad3e eeaa bcbe 8644 93bd a364 81be
-0.2626799 0.2301008 -0.1935492 0.0099551 0.12031468 -0.6157202 -0.012853092 0.19545597
0.17992309 0.23576309 0.19780435 0.02317908 0.19836749 0.35977194 -0.20667729 0.29277322
-0.1734523 -0.3036593 0.2418166 0.10274651 0.5867946 0.31718978 0.17623803 0.21393757
-0.1572198 0.10674942 0.25105795 -0.13337679 -0.06470201 -0.29239392 -0.051297802 0.07237948
-0.39562935 -0.020113973 -0.19925593 -0.072149634 0.26001212 -0.21618316 0.25362396 0.23556344
0.033902846 0.28982708 0.27404106 0.10780518 0.22713582 0.46926385 -0.17552115 0.27419132
-0.29026312 -0.13016808 0.28710803 -0.09987385 0.53159153 0.29834336 0.17854163 0.3027184
-0.27315548 0.18460256 0.17619346 -0.11329422 -0.006742932 -0.40233582 0.013289598 0.14861263
-0.40245733 0.31987858 -0.3218199 -0.2145362 0.043554593 -0.14296876 -0.4307374 0.23042865
-0.13072868 0.48760548 0.34940445 0.07543865 0.26353115 -0.035820052 -0.25682813 0.42618188
0.1455437 -0.40247938 0.05288261 0.0755408 0.36549285 0.29749736 0.17365526 0.7074459
-0.106935516 0.03952142 0.23014507 0.120307356 -0.020279143 -0.27875045 -0.05236123 0.002675074
-0.16330914 0.055321928 -0.3694929 0.2766942 0.18257777 -0.16364676 -0.277119 0.24058826
0.21357056 0.3563237 0.31661323 0.4343991 0.2955255 0.6108776 -0.33354744 0.10965906
0.1519407 -0.25401464 0.13592117 -0.25955424 0.29192552 0.26183453 0.1443913 0.10228162
-0.35438216 0.108206674 0.06627746 -0.6795035 0.33844703 -0.3684916 -0.07190804 -0.25272092

fc3.bias f4 [4]
00000000: 1547 b63e 01df 103e b610 883d 246c 9f3e
0.35601106 0.14147569 0.06643812 0.31137192
